…
          "base_uri": "https://localhost:8080/"
        },
        "id": "GitIqetx84aL",
        "outputId": "32aa024e-0d47-47af-a444-8a371ffbc865"
      },
      "execution_count": 18,
      "outputs": [
        {
          "output_type": "stream",
          "name": "stdout",
          "text": [
            "Model: \"sequential_1\"\n",
            "_________________________________________________________________\n",
            " Layer (type)                Output Shape              Param #   \n",
            "=================================================================\n",
            " conv2d_3 (Conv2D)           (None, 254, 254, 32)      896       \n",
            "                                                                 \n",
            " batch_normalization (BatchN  (None, 254, 254, 32)     128       \n",
            " ormalization)                                                   \n",
            "                                                                 \n",
            " max_pooling2d_3 (MaxPooling  (None, 127, 127, 32)     0         \n",
            " 2D)                                                             \n",
            "                                                                 \n",
            " conv2d_4 (Conv2D)           (None, 125, 125, 64)      18496     \n",
            "                                                                 \n",
            " batch_normalization_1 (Batc  (None, 125, 125, 64)     256       \n",
            " hNormalization)                                                 \n",
            "                                                                 \n",
            " max_pooling2d_4 (MaxPooling  (None, 62, 62, 64)       0         \n",
            " 2D)                                                             \n",
            "                                                                 \n",
            " conv2d_5 (Conv2D)           (None, 60, 60, 128)       73856     \n",
            "                                                                 \n",
            " batch_normalization_2 (Batc  (None, 60, 60, 128)      512       \n",
            " hNormalization)                                                 \n",
            "                                                                 \n",
            " max_pooling2d_5 (MaxPooling  (None, 30, 30, 128)      0         \n",
            " 2D)                                                             \n",
            "                                                                 \n",
            " flatten_1 (Flatten)         (None, 115200)            0         \n",
            "                                                                 \n",
            " dense_3 (Dense)             (None, 128)               14745728  \n",
            "                                                                 \n",
            " dropout (Dropout)           (None, 128)               0         \n",
            "                                                                 \n",
            " dense_4 (Dense)             (None, 64)                8256      \n",
            "                                                                 \n",
            " batch_normalization_3 (Batc  (None, 64)               256       \n",
            " hNormalization)                                                 \n",
            "                                                                 \n",
            " dense_5 (Dense)             (None, 1)                 65        \n",
            "                                                                 \n",
            "=================================================================\n",
            "Total params: 14,848,449\n",
            "Trainable params: 14,847,873\n",
            "Non-trainable params: 576\n",
            "_________________________________________________________________\n"
          ]
…
